Poker Game/poker_bot_model.pth (torch, 79448 bytes, 6 tensors)

l1.weight f4 [128, 17]
000000 5d 80 e3 3e 5a 1f 2b bd 02 cf a6 be 14 ae 4d bd
       0.4443387 -0.041777946 -0.3257981 -0.050214842
000010 4a bf 58 3d a7 93 38 3e 2f 4c 20 3e e9 8d f5 bd
       0.052916802 0.18025075 0.15654062 -0.11989958
000020 95 34 56 3e ba ab 48 3d f3 dd 1a 3e 50 1d 10 be
       0.20918496 0.048991896 0.1512373 -0.14073682
000030 a0 52 da 3e 38 88 d3 bb 67 1f c8 bd b5 79 61 be
       0.42641163 -0.0064554475 -0.097716145 -0.22019084
000040 e3 3f 06 3e 0a 41 80 bd 48 e3 f5 3c 57 10 1b bc
       0.13110308 -0.06262405 0.030015603 -0.009464345
000050 57 fe 7b be 60 30 40 3e 5c 04 1f 3e c2 95 7a 3e
       -0.24608742 0.18768454 0.15529007 0.2447119
000060 10 7f 30 3e b7 a9 9d be 25 a4 2b bd 06 b4 33 3d
       0.1723597 -0.30793545 -0.041904587 0.043872856
000070 6e 0b 81 be c6 c1 d7 bd 12 a0 7f 3e 15 3f 92 be
       -0.25204033 -0.10535006 0.24963406 -0.28563753
000080 62 7c 20 3e ae e1 5a 3e 7c 74 38 3d db 74 35 3e
       0.15672448 0.21375152 0.045032963 0.17720358
000090 b1 96 9f be ef a6 6d ba 66 62 ae 3e ae 09 c1 3b
       -0.31169656 -0.00090657076 0.34059447 0.0058910465
0000a0 29 79 ee bd 8e 8d b8 bd 3e 6d b9 3d 0a 72 c9 bd
       -0.11644203 -0.090113744 0.090540394 -0.09836204
0000b0 b9 a0 f1 3c 06 d2 01 bd 88 b9 33 be 8a fb ae 3d
       0.029495584 -0.031694435 -0.17551243 0.08544071
0000c0 47 94 3b be a9 9e b3 be e5 2d e9 bd 76 c1 7b 3e
       -0.18318282 -0.35081986 -0.11385707 0.24585518
0000d0 9d a4 3c be 2b 8c 18 3d 5e 40 3a be d0 13 60 be
       -0.1842217 0.03724305 -0.18188617 -0.21882558
0000e0 1b 7c 89 3e 1e e9 53 3d 1b c6 64 3e 74 f1 c0 be
       0.26852497 0.05173599 0.22341196 -0.37684214
0000f0 20 19 20 be 6b 65 56 3e 32 7c e7 bd c5 e7 b3 bd
       -0.15634584 0.20937125 -0.11302985 -0.08784441
000100 11 11 19 be d6 4a e3 bd 6a ff 31 3e 68 e8 ef 3d
       -0.14947917 -0.11098258 0.17382589 0.1171425
000110 2d 02 e8 3d bf 33 37 3e f5 d2 72 3e 34 eb 3d be
       0.1132854 0.17890833 0.23713286 -0.18546754
000120 5c e6 ed bb cc 03 e3 3d 45 14 0f be e9 c6 a1 3d
       -0.007260127 0.110847086 -0.13972576 0.07899267
000130 30 d7 70 3e 72 10 8f bd 4c cb c8 bd b3 43 07 be
       0.23519588 -0.069855586 -0.09804401 -0.13209419
000140 0f 13 c6 bd fa 7d 48 3e 15 81 95 be 87 cf 95 3d
       -0.09671604 0.19579306 -0.29200044 0.07314973
000150 fb 2e c7 3c 4f 42 4b be f7 e4 28 be 45 23 86 3c
       0.024314394 -0.19849513 -0.16493593 0.01637424
000160 92 d5 18 3e f0 7d 6c 3e a4 b4 e6 bd 66 4b 47 be
       0.1492522 0.23094916 -0.11264923 -0.19462356
000170 0c 9e d9 3d ff 67 26 be 41 eb 17 3e f4 91 b7 be
       0.10625848 -0.16250609 0.14835836 -0.3585354
000180 e4 20 bb 3d 2b 8c 5b 3a 38 39 58 bd 77 36 51 be
       0.09137133 0.00083750737 -0.052788943 -0.20430933
000190 f4 39 26 3e 4c d7 85 3c 4a df aa be b6 50 3d 3e
       0.16233045 0.016338013 -0.3337348 0.1848782
0001a0 80 a9 1d 3e 3b 1e 41 3e 91 0d e0 3d a7 c2 43 be
       0.1539669 0.18859188 0.109400876 -0.19117223
0001b0 35 61 19 be e5 2e 42 3e fd 65 91 3d 8c 33 15 be
       -0.14978488 0.18963201 0.07099531 -0.14570445
0001c0 c5 2c b4 be 84 30 10 3e 5f b1 a3 bd fa e4 14 be
       -0.35190406 0.14081007 -0.07992815 -0.14540473
0001d0 e0 a5 13 3e 46 85 ff 3d a9 d8 9b bd a2 c8 51 3d
       0.14418745 0.12476592 -0.07609684 0.05121673
0001e0 7d 25 00 3e 92 42 d8 bd 34 38 80 bd 74 a6 8f bc
       0.125143 -0.10559572 -0.0626072 -0.017535426
0001f0 98 fc 69 be f8 a8 5a be 14 84 0b bd 43 46 5a bd
       -0.22850263 -0.21353519 -0.034061506 -0.053289663
000200 16 42 69 3d 2e 00 c7 bb d2 13 5e 3e f1 e7 b6 be
       0.05694779 -0.0060730195 0.21687248 -0.35723832
000210 74 d6 ca be 97 a9 02 be a2 74 ad be e1 f2 81 bc
       -0.3961674 -0.12760006 -0.33878046 -0.015862884
000220 ea 44 a2 3e 8d e2 83 bd 65 f7 ba be 13 50 5c bd
       0.31693202 -0.064396955 -0.36516872 -0.053787302
000230 27 8a 56 3e 41 4b 0e 3e 93 c2 99 be 12 22 9a 3d
       0.20951138 0.13895895 -0.3003126 0.0752603
000240 25 d9 72 bd 0e c1 87 bd 20 b8 b3 be 9f ec 00 bf
       -0.059289116 -0.06628619 -0.35101414 -0.50361055
000250 02 a1 fd bd 61 89 84 be 74 91 38 3e 64 13 c9 be
       -0.123842254 -0.25886062 0.18024236 -0.39272606
000260 60 a0 15 3e f7 79 92 be fb 5a 3a bc 17 b4 ac be
       0.1461196 -0.28608677 -0.0113742305 -0.33731148
000270 10 fa 26 3e 9d a6 92 be 61 ef 44 be 54 7b 1d 3e
       0.16306329 -0.2864274 -0.19231941 0.15379077
000280 1d c7 ba 3d 1e 18 e5 3d 52 95 e6 3d 50 8a 2d 3e
       0.09120009 0.111862406 0.11258949 0.16947293
000290 a4 c8 87 be 48 54 df 3d 60 ee 6f 3d e3 16 39 3e
       -0.26520264 0.10904747 0.05857694 0.18075137
0002a0 34 a3 85 3c 5f 72 3c bd e1 5b ad be 66 b0 57 3e
       0.016313173 -0.04600751 -0.3385916 0.21063384
0002b0 7e 22 c7 3e c6 18 80 be a9 95 a3 3d a0 ec 5f be
       0.38893503 -0.250189 0.0798753 -0.21867609
0002c0 00 07 2d 3e 20 d5 30 3e 97 09 39 3e d0 e8 49 ba
       0.16897202 0.172688 0.18070064 -0.0007702233
0002d0 5b 8d 8c 3e f6 04 43 be c6 ff 7c bc 5c 08 1c 3e
       0.27451596 -0.19044861 -0.0154418405 0.15237564
0002e0 7d 86 4a be 3a 9d 80 be cf 46 76 be d6 a1 4a be
       -0.19777866 -0.25119954 -0.24050449 -0.19788298
0002f0 b2 c0 4b bb 71 2a 90 be c4 8a ce 3d 3d 92 11 3c
       -0.0031090197 -0.2815738 0.10085061 0.008884964
000300 fd ba ae 3c 32 9c 5f 3d 15 1a f0 bd 20 f1 60 be
       0.021329397 0.05459232 -0.11723725 -0.21966982
000310 72 6c c2 3d 63 ca 6a bd 7c 79 99 bd f7 e1 b1 bd
       0.094933406 -0.057321917 -0.074938744 -0.086856775
000320 19 d1 18 3e 1a 7c 67 be 94 8d 1b 3e 3a 95 a4 3d
       0.14923514 -0.22605935 0.15190727 0.08036275
000330 5c ec b9 be c4 6a 15 3e f8 15 8b bd 43 8f 2b be
       -0.3631314 0.14591509 -0.067912996 -0.16753869
000340 9b af 70 3e bb 60 4f 3d 7c be be bd e4 e3 1e 3e
       0.23504488 0.05062936 -0.09313676 0.15516621
000350 8b 05 8f bd 1c 3b 43 be ea f5 d9 3d 13 23 ea 3d
       -0.06983479 -0.19065517 0.106426075 0.11432471
000360 24 c3 f6 be 95 31 c9 be c6 91 95 be e3 ab bb bd
       -0.48195755 -0.3929564 -0.2921278 -0.09163644
000370 3a a1 d1 3d f7 d9 02 3e 6a fb 4e 3d 2e ab 91 bd
       0.1023583 0.1277846 0.050532736 -0.07112728
000380 0f c5 8c bd ee c9 8a be 7c 5b 41 be 15 40 0a 3c
       -0.068735234 -0.27107185 -0.18882555 0.00843813
000390 55 cf 23 3c d7 6e da 3d aa 5c 43 3e c5 ce 99 3e
       0.009998162 0.10665672 0.19078317 0.30040565
0003a0 5c 6a 55 3d 22 da ac bd 45 59 40 be ab 18 4a 3d
       0.052103385 -0.08440043 -0.18784054 0.04933993
0003b0 c3 67 6e be 8c c7 42 be 0e f1 16 3e 10 26 50 3d
       -0.2328177 -0.19021434 0.14740393 0.05081755
0003c0 26 a1 5a be fa cb e2 bb c6 6b 02 3e 67 c4 a7 3d
       -0.21350536 -0.0069212886 0.12736425 0.08191758
0003d0 f3 b1 9a 3e d5 95 0f bd 3f c1 6b 3e 66 10 5e be
       0.3021389 -0.035055 0.23022936 -0.21685943
0003e0 e1 a6 a8 3e e3 50 2d bd 9b 05 17 be 88 00 ed 3d
       0.32939819 -0.042313468 -0.14748232 0.11572367
0003f0 66 fb 3a be e7 f3 6f 3d 7a d4 21 3c d5 5a 1f 3d
       -0.18259963 0.058582213 0.0098773185 0.038904984

l1.bias f4 [128]
000000 4b 66 cb bd 85 aa 86 3d ed fb db bd 31 08 27 3e
       -0.0993162 0.06575493 -0.107414104 0.16311719
000010 0c 2f 02 be 97 81 7b be 7a ef 06 be 86 3a 60 3e
       -0.1271326 -0.24561153 -0.1317729 0.21897325
000020 e8 42 6a 3e e6 47 0e 3e 30 02 8a 3e 20 e6 72 be
       0.22877085 0.13894615 0.26954794 -0.23720598
000030 e8 38 37 3e 7a 0a 23 bd 44 fe 51 be c2 8f 4d be
       0.17892802 -0.039804913 -0.20507151 -0.2007437
000040 50 0b 0c be a3 a3 23 bc 1c 0d f4 bd f7 2c 2f be
       -0.1367619 -0.0099877445 -0.11916563 -0.17106996
000050 93 6b 26 be c5 32 85 bc e8 68 c7 3c f8 43 d8 3d
       -0.16251974 -0.01625956 0.024342015 0.10559839
000060 48 c8 50 bd 42 6e 10 3e 66 94 ff bc 4d fa 54 3e
       -0.050972253 0.1410456 -0.031198692 0.20798607
000070 61 c2 6e be 35 86 7c be 75 44 7e be f2 52 8d be
       -0.23316337 -0.24660571 -0.24830802 -0.27602345
000080 2f 70 90 be ad 85 25 3d c9 7c bf be 50 27 81 be
       -0.2821059 0.040410686 -0.3739989 -0.25225306
000090 de 55 67 be d0 72 16 3e 46 05 80 3d 30 7e 2f be
       -0.2259135 0.14692235 0.06251006 -0.1713798
0000a0 13 fc 4a be 1d 90 ff bd 9a e4 96 3d ae 30 22 3e
       -0.19822721 -0.12478659 0.07367821 0.15838882
0000b0 54 d1 2e bd d5 4a 6d be ad f8 77 bc d7 9a ba 3e
       -0.0426801 -0.23173077 -0.0151349725 0.36446258
0000c0 95 f9 b8 bc ff b6 c4 3c fe f6 c3 bd 74 a1 3e bd
       -0.022579947 0.02401304 -0.095685944 -0.046540692
0000d0 29 c2 71 be 46 0b 85 be ce 2a 5d bb 4a fe bc bd
       -0.23609222 -0.25985163 -0.0033747437 -0.09228189
0000e0 5a a0 98 bb 2b f8 42 be 4f 84 59 3d b8 a9 96 3d
       -0.0046577873 -0.19039981 0.053104695 0.0735659
0000f0 e4 59 2f 3e 05 5b 9a be 5b 2b 98 bc 2a c8 22 be
       0.17124134 -0.30147567 -0.018575361 -0.15896669
000100 59 62 d8 bd 0d a3 1a be 14 8f 59 be 5a 6e aa be
       -0.10565633 -0.15101261 -0.21245986 -0.33287317
000110 54 92 6b bc 34 58 56 bd 2d 0b 62 be 21 16 10 be
       -0.014378149 -0.05233021 -0.22074576 -0.14070942
000120 f1 f9 46 3e 0b 28 f8 bd c6 09 90 3d ea fe 11 bc
       0.19431283 -0.121170126 0.07033114 -0.008910874
000130 5a e4 b2 3d ea f7 88 3d fb 88 14 3d f6 5f 8b 3e
       0.08734961 0.06687911 0.036263447 0.2722165
000140 b1 a5 fe 3d 02 4c aa bd 87 2c bd bd 84 a2 82 3e
       0.12433947 -0.083152786 -0.092370085 0.25514615
000150 e7 a3 de 3b 0b c0 93 3e ae ab 1d be c3 be a6 3e
       0.006794441 0.28857455 -0.15397522 0.32567415
000160 b9 05 11 be 31 56 6c bd 2e 65 b6 bc 61 5f 17 3e
       -0.1416234 -0.057699386 -0.022265043 0.14782478
000170 aa d4 5f be b4 96 17 3e 03 db 3f 3d d0 33 b0 3c
       -0.21858469 0.14803582 0.046839725 0.021509081
000180 d9 3c 5e 3e 9c 0a c5 be 0e e4 25 3d df 98 28 3e
       0.21702899 -0.38484657 0.040500693 0.16464566
000190 10 e6 a8 be 3d 99 c2 3d c2 43 64 be de dd e1 bd
       -0.32988024 0.09501884 -0.22291473 -0.11028646
0001a0 fc f5 45 be d3 5b 23 be 5a 83 88 bd f6 32 16 be
       -0.19332117 -0.15952997 -0.06665678 -0.14667878
0001b0 d7 36 c7 bd 55 87 6b 3e 83 ca 2e 3d 7a b4 de bd
       -0.09727257 0.23000844 0.0426736 -0.10874267
0001c0 c0 c2 b5 3b 3c 8f 7c 3e ba 47 55 be 1f d6 91 3e
       0.0055468976 0.24664015 -0.20828143 0.28483674
0001d0 8a b7 39 3e d6 88 3d be 6b 4f c4 bd 03 d3 a9 3d
       0.18136421 -0.1850923 -0.0958546 0.082922004
0001e0 ee 6d 24 3e 22 3d 1b 3e 9f 65 68 be b0 9a f9 bd
       0.1605756 0.15160039 -0.22695015 -0.121877074
0001f0 58 7d 02 3e 7c 87 6d 3d 5f 48 35 3e 65 65 38 be
       0.12743127 0.057990536 0.17703389 -0.18007429

l2.weight f4 [128, 128]
000000 b4 67 a1 3d 8e 3c ad 3d 70 f9 04 3e bc 0a 51 3e
       0.07881108 0.084588155 0.12985778 0.20414251
000010 98 81 2a 39 ad e7 53 3b 8b bc 0c 3d 9f 46 fa 3c
       0.00016260741 0.0032334134 0.034359496 0.030551253
000020 ab d5 1a bc 6a c5 b6 3c e2 a3 47 3e 70 32 cf 3c
       -0.0094503565 0.022310931 0.1949611 0.025292605
000030 b0 d7 c1 bd b5 fa 88 3d 50 d5 7d bd 8c 7f a4 3b
       -0.09464967 0.066884436 -0.06197101 0.0050200876
000040 2b fc 66 be 98 f6 c7 bd cd 66 12 bd 0e 2c fb 3c
       -0.22557132 -0.09763831 -0.03574257 0.030660655
000050 24 47 4a be 31 d1 85 bd 01 f1 1d be 0e f1 7f be
       -0.197537 -0.06534041 -0.15423967 -0.24994299
000060 a6 1c fe bc e3 bb e1 bc fb a9 37 be 6c ef 4a be
       -0.03101952 -0.027555412 -0.17935936 -0.19817895
000070 08 4e 60 3c 28 b1 ad 3c 66 b6 ac bd 0e 35 d5 bd
       0.013690479 0.021202639 -0.08433227 -0.1041051
000080 ad 49 9e 3b d9 ca f8 3d ca 08 79 3d a3 8a 90 bb
       0.00483056 0.12148065 0.060799398 -0.004411058
000090 21 be 79 3d 9b 4c a2 3d e0 d1 56 bd 89 3b 56 bd
       0.060972337 0.079247676 -0.052446246 -0.05230287
0000a0 d3 d7 56 bd 8c 12 a1 bc 77 71 60 bd 8d 2c 69 bc
       -0.05245192 -0.019662164 -0.05479571 -0.014231813
0000b0 6f 7d a3 3d 47 b6 e5 3c df 64 dc 3d 54 b8 3c be
       0.07982909 0.028041018 0.10761427 -0.1842969
0000c0 e3 2a c7 bd 55 c4 b0 3d e8 19 c7 bc 90 7b 02 bb
       -0.09724977 0.08631197 -0.024304345 -0.0019910075
0000d0 a4 83 ff bc c4 61 ea 3a 76 50 93 bd 1c 95 b4 3c
       -0.0311907 0.001788192 -0.07193081 0.022043757
0000e0 81 b9 5a 3d 29 fc 3b 3d 95 65 11 3e cc 6c 37 3d
       0.053399567 0.045894776 0.14198907 0.04478149
0000f0 49 8e 3a bd 5a 14 4f 3e 55 b9 c6 3d 43 57 f6 3d
       -0.04554585 0.20222607 0.09703318 0.120283626
000100 3c a8 cb bc f9 d7 a4 bd 41 12 15 bd bb a8 89 3d
       -0.024860494 -0.08049006 -0.03639436 0.06721636
000110 83 cc 15 bc 7f ea 18 be 9b 9c 06 bd dd 35 19 3e
       -0.009142998 -0.14933203 -0.032864194 0.14961953
000120 71 61 b1 bd c3 27 e4 3d 22 57 bc 3c 3e 1f c6 3d
       -0.086611636 0.111403964 0.022990767 0.09673928
000130 5c 50 4a bd 96 c6 ba bd cd a9 43 bc 0f dc d6 3b
       -0.049393043 -0.091199085 -0.011942339 0.0065569947
000140 9f 72 a7 bc a9 0d 2c 3c 18 e9 42 bd 33 67 5b bb
       -0.020440398 0.010501304 -0.047585577 -0.003347826
000150 a7 14 0b be a1 ca 36 3e 19 3c 97 3d 86 06 04 be
       -0.13582097 0.17850734 0.073845096 -0.12893113
000160 52 c4 19 3d 23 88 f5 3c 5e 99 02 3e 76 4d 2a 3d
       0.03754074 0.029972142 0.12753817 0.04157778
000170 c3 0f 34 3e 0d bb f6 bb 2a cc 90 3c 9e e5 22 3d
       0.17584138 -0.0075296224 0.017675478 0.03976976
000180 7a e3 1a be 39 8c 2e 3d a2 c6 72 bd 32 46 c9 bd
       -0.15125838 0.042614195 -0.059271462 -0.09827842
000190 db 5b 80 3e 99 96 d3 bd 2e 1d 83 bd 26 24 e0 3d
       0.2507008 -0.103314586 -0.0640205 0.10944395
0001a0 db 35 52 3d bc 90 11 3c 67 de a2 3d 3c 6f c9 3d
       0.05132089 0.008884605 0.07952576 0.098356694
0001b0 8d aa de bd 2a 7b 20 be da a8 3f 3e 8a 86 a7 3d
       -0.10872374 -0.15671983 0.18716756 0.08179958
0001c0 ba a6 42 3d b9 13 79 bc 4a 91 e4 bd 5e f5 c6 bc
       0.047522284 -0.015202456 -0.11160524 -0.024286922
0001d0 a9 a2 80 3d 51 8e 22 be 5e 84 4a 3d 8e a5 0f 3e
       0.06281025 -0.15874602 0.04944264 0.14027998
0001e0 5a 63 7d be 94 ee 0c bc 9a 1e 80 3d fe 3d ea bd
       -0.24744931 -0.008601803 0.06255837 -0.11437605
0001f0 67 03 9f bd 8d d3 9d be ce aa 20 3e 27 c8 12 3d
       -0.07764321 -0.30825463 0.15690157 0.03583541
000200 fb f7 18 bd f2 e6 e1 bd ea 91 f3 3d a0 50 39 3e
       -0.037345868 -0.110303774 0.11893065 0.18097162
000210 46 f0 2b bd fd 60 14 3d 5f b9 a0 bd b0 72 fd 3d
       -0.04197719 0.036225308 -0.07847857 0.123753905
000220 7c 88 a3 3e ad f7 85 3d e0 c0 e3 bd 51 78 dc bd
       0.31940067 0.06541381 -0.11120772 -0.10765136
000230 f6 7c 9c bd 45 02 4b 3c 5b 0b 78 3d 02 36 11 3c
       -0.07641022 0.012390678 0.060557704 0.008862974
000240 da 28 42 bd af 26 8c 3d 84 d5 6e 3d f0 ae 04 3d
       -0.04740224 0.06843316 0.058309093 0.032393396
000250 87 9c c5 bd 41 4c 38 be d5 3a 8c 3d e7 81 ca bd
       -0.09648996 -0.17997839 0.06847159 -0.09888058
000260 a1 a4 2d bd d8 6f 06 3d f9 f2 cc 3e 20 f2 8e 3e
       -0.04239333 0.032821506 0.40029123 0.27919102
000270 60 f9 58 3b 78 27 22 3e 1f 91 aa bb a8 36 e6 bd
       0.0033107623 0.15835369 -0.005205288 -0.112408936
000280 86 4a c4 bb b2 8d 15 bd 25 d0 82 bb 88 2a b7 3d
       -0.005990329 -0.036512084 -0.003992098 0.08943659
000290 4c 0d 63 bc 17 56 b9 bc 00 85 f5 bd 28 f4 61 be
       -0.013858151 -0.022624059 -0.11988258 -0.22065794
0002a0 40 c4 a1 bb dd 32 ab 3d bd 74 05 3e d7 40 20 3d
       -0.004936725 0.08359311 0.13032813 0.039124336
0002b0 47 17 0c be 73 67 85 be 87 fc a7 3c fc 6d 61 3e
       -0.13680755 -0.26055488 0.020506157 0.22014612
0002c0 91 0f 89 3b dd 17 11 3e 03 bd 9d 3d a6 ed 58 be
       0.004182764 0.1416926 0.07702067 -0.21184406
0002d0 a6 a2 ca 3d b5 8b 31 bd e2 a4 1d 3e 7a 5e c7 bc
       0.09894304 -0.043346126 0.15394929 -0.024337042
0002e0 d5 e4 3e 3e 9a 29 ea bd 56 39 c6 3d 33 76 68 be
       0.1864198 -0.11433716 0.09678905 -0.2270134
0002f0 6e d8 4d 3e f4 a2 85 3d 75 22 09 be 74 fc c8 3d
       0.20102093 0.065252215 -0.1339205 0.098137766
000300 9d 73 4f bd 6f 33 fc 3b 6a e7 01 3d 87 f7 06 bd
       -0.050647367 0.007696561 0.031714834 -0.032950904
000310 11 04 36 bc da 0d 33 3d a5 e3 73 bc f9 a2 7d bc
       -0.011109368 0.04371438 -0.014885818 -0.01548075
000320 43 d0 e2 3e 46 a4 c1 bd 7e f3 3b 3e 62 9b 12 be
       0.44299516 -0.09455161 0.18354604 -0.14317086
000330 6e fb 87 bb 82 46 4a 3b c1 1b 38 3e 20 50 94 3d
       -0.004149846 0.003086478 0.17979337 0.07241845
000340 6d c5 ab 3e 58 d2 aa 3d 84 62 2d 3c 51 b0 93 3d
       0.3354906 0.08340901 0.01058257 0.07211364
000350 b1 5b 90 3d 1b 71 38 3d 2b 26 b1 3d b4 67 61 3e
       0.07048739 0.04502974 0.08649858 0.22012216
000360 1a 59 71 bd a3 c9 46 bb c6 4d f5 bd 0e f7 1b be
       -0.058922864 -0.0030332587 -0.11977725 -0.15230963
000370 4c 5e e3 3d 17 bf fe bc 93 ca 07 be 07 7f 61 bd
       0.1110197 -0.031096978 -0.1326087 -0.055052783
000380 3c 4a 4d 3e aa e5 de bd 05 2b 38 bd c3 f8 26 be
       0.2004785 -0.10883649 -0.0449629 -0.16305833
000390 f1 44 28 3d 3d 47 68 3e c4 eb e1 3d 6e 26 81 3e
       0.041081373 0.22683425 0.11031297 0.25224632
0003a0 82 47 00 bd 76 9d b3 bd f3 ae 8f 3d c0 78 19 3e
       -0.031318195 -0.08770268 0.07015791 0.14987469
0003b0 d6 d8 fe 3d c5 ae 02 3e 1f e3 77 3d 25 ef fe 3d
       0.12443702 0.12761982 0.060519334 0.12447957
0003c0 17 7c 7e bd 87 fa 25 3e 72 ad e9 bd b9 6b 01 3e
       -0.06213006 0.1620885 -0.11410035 0.12638749
0003d0 c5 6b b0 3d c0 22 7c 3e 73 66 ee 3d 73 81 23 3e
       0.086143054 0.24622631 0.116406344 0.1596735
0003e0 7b 30 66 3d 28 2f 1b be fb c1 65 3c 02 36 e3 3e
       0.05619858 -0.15154707 0.014023299 0.44377142
0003f0 2c 79 66 be 94 e3 29 be 00 86 a1 3e 33 bb e8 3d
       -0.22507161 -0.1659072 0.31547546 0.113638304

l2.bias f4 [128]
000000 c3 48 1b bd 07 32 3b bd 13 ce ea bd 87 1b 4d 3c
       -0.037911188 -0.045702007 -0.11465087 0.01251877
000010 ab 9f a3 bd e2 c5 ec bd 85 59 0a bc 3a 38 0a 3e
       -0.079894386 -0.11561181 -0.008444195 0.13498011
000020 4c f9 a4 3b fa a8 6f bb 3f 08 4b 3d 93 fd 81 bd
       0.0050346013 -0.0036569224 0.04956841 -0.063471936
000030 88 fb 93 bd 73 2f a9 bc 18 a2 ee 3d e4 d9 3a 3c
       -0.0722571 -0.020652508 0.11652011 0.011404488
000040 85 5b 13 3c 3c 8b 4c 3d 49 67 bf bd d9 c1 aa 3d
       0.008993988 0.04993747 -0.09345872 0.08337755
000050 ac 16 85 3d 41 95 ba bd c1 cc 0f be 88 8e 1c bd
       0.06498465 -0.09110499 -0.14042951 -0.038221866
000060 73 88 8d bd e7 3c 02 be d3 27 1f bc 3c 61 e1 3d
       -0.06910791 -0.12718545 -0.009714085 0.11004874
000070 69 35 82 3d 61 be f4 bd b7 1a 16 3e 5a ee 34 be
       0.063578434 -0.119503744 0.14658628 -0.17669049
000080 2c 65 18 be 5f 5a 84 bd 8a 31 07 bc 14 c7 40 be
       -0.14882344 -0.064625494 -0.008251557 -0.18825942
000090 e3 1c dd bd 2a 72 5b bc 61 89 0a bc 2c f3 d2 bd
       -0.10796525 -0.013393918 -0.008455605 -0.103002876
0000a0 f9 f6 d7 bb 3e 46 ce bd 9f b1 9c bd 26 c6 58 3d
       -0.0065907207 -0.100719914 -0.07651066 0.052923344
0000b0 11 20 f6 3c 60 3d ca 3b 3f 9e a9 bd 62 4f cf bd
       0.030044587 0.0061718673 -0.08282136 -0.10122563
0000c0 e1 5a 8c bd e8 40 75 bc e0 71 fd 3d 37 99 9a bd
       -0.06853271 -0.014969088 0.123752356 -0.07548755
0000d0 d3 2b 86 bd 9a 15 01 be 0d 38 09 be 83 a6 fe 3d
       -0.065513276 -0.12605897 -0.13400288 0.12434103
0000e0 17 82 08 be e0 7c 75 bd c0 3f 97 bc 0c 55 41 3e
       -0.13330875 -0.059933543 -0.018463016 0.18880099
0000f0 d3 c7 aa 3d 83 06 32 3c 9e 00 28 bc 2e 96 03 3e
       0.08338895 0.01086581 -0.010254053 0.12850258
000100 84 8c 56 3c 93 7e 1a 3d 45 0c 8d bd 01 9c 2e bc
       0.013095025 0.037718367 -0.06887106 -0.010657311
000110 56 1d c0 bd 27 0e 9a 3d 84 dd 0c b9 a1 7a f7 3d
       -0.093805954 0.075222306 -0.00013433961 0.120839365
000120 04 2e ae bc 53 89 bd 3d fc 2d b1 bc c2 35 9d 3c
       -0.021262176 0.09254708 -0.021628372 0.019190673
000130 6a 2d 27 bd c8 d4 01 be 4a 3d ce 3d 0b 8b da 3d
       -0.040814795 -0.12678826 0.10070284 0.106710516
000140 08 b2 cc 3d b8 45 02 be ed b6 d3 3d ad 06 ed bb
       0.09994894 -0.12721908 0.10337625 -0.007233462
000150 46 b5 d2 3c d4 2b ae bd ab 87 f6 bd 1a b0 52 bd
       0.025721204 -0.08504453 -0.12037595 -0.051437475
000160 0b 65 cd bd 4a e2 8b bd e3 76 fa bc c8 23 9f bd
       -0.10029038 -0.068302706 -0.030574268 -0.077704966
000170 62 6e 22 3c 1e 93 15 be 51 9d 6c bd 94 7f c3 bd
       0.009914013 -0.14606902 -0.057767216 -0.09545818
000180 48 18 60 bd 2c 6c cd bd af fc 20 bc 1b 48 1f bd
       -0.054710656 -0.10030398 -0.009825869 -0.038887125
000190 98 e1 ea bd 08 5c 72 bd 24 68 42 be 56 7d ef 3c
       -0.1146881 -0.0591698 -0.18985039 0.02923457
0001a0 47 3a a8 bd 93 77 65 bd d5 e5 02 be d8 5a 8c 3d
       -0.082142405 -0.056022238 -0.12782986 0.068532646
0001b0 79 57 27 be 60 b7 ac 3d e6 7d 7c 3c 71 bc cb 3d
       -0.16341962 0.084334135 0.015410876 0.09948052
0001c0 57 8c 93 bd cd 39 2f 3d b5 23 cd bd fa 33 8e 3c
       -0.07204502 0.042779732 -0.10016576 0.017358769
0001d0 e3 05 37 3d 7d b0 28 3d 04 41 07 be b8 17 74 bd
       0.04468335 0.041183937 -0.13208395 -0.059592932
0001e0 b3 82 a0 bd 9b 5a 63 bc 28 7d c5 bc 1d a6 da 3a
       -0.07837429 -0.0138765825 -0.02410753 0.0016681586
0001f0 b6 27 a8 bd 88 6c 12 be ee 58 f6 bc 27 69 58 bc
       -0.08210699 -0.14299214 -0.030071702 -0.013208664

l3.weight f4 [3, 128]
000000 80 5e b2 bd a6 84 66 3e 1f 25 9e bd 2e 92 76 3e
       -0.08709431 0.22511539 -0.07721924 0.240792
000010 fb f0 c0 3d 6a 84 88 3c 7b 23 94 bb 6e 41 0b bf
       0.094209634 0.016664702 -0.004520831 -0.5439671
000020 37 5c 4a 3e 62 b6 98 bd 98 81 35 3e 0a 7f be 3d
       0.1976174 -0.07456662 0.17725217 0.093015745
000030 0f 7c aa bc 0e 4a 08 be 53 42 64 3c dd 0f db bc
       -0.020811109 -0.133095 0.013931829 -0.026740963
000040 51 c0 b5 3d 44 dc 8e 3d 43 4f 5d be 22 4e 4d 3e
       0.08874572 0.06975606 -0.21612267 0.20049337
000050 ea 5b 11 be a3 c4 ba bd 05 06 fd bd b5 77 9c bc
       -0.14195219 -0.09119537 -0.12354664 -0.01910005
000060 64 e5 c4 3e 8b 25 1f 3e 9a d7 35 3d 02 e8 20 3e
       0.3845626 0.15541665 0.044395067 0.15713504
000070 98 8e a7 3c 2a 7b a4 be 58 79 0f be 04 11 a0 3d
       0.020453736 -0.32125217 -0.14011133 0.078157455
000080 67 df 02 3f ce 5b 9d bd ef 73 74 be d4 71 5a 3d
       0.51122135 -0.07683526 -0.2387235 0.05333121
000090 d2 a1 86 3d 26 ce 62 be 14 5a 85 3d 73 bf 94 3e
       0.065738335 -0.22148952 0.06511322 0.29052314
0000a0 bd 7d 59 be 7e 78 cd bd 41 e3 18 be a7 91 db 3c
       -0.21239372 -0.10032748 -0.1493044 0.02680285
0000b0 db 31 8f be eb 6a e3 bd ab 95 73 bd d4 9a 77 be
       -0.27967724 -0.11104377 -0.059468906 -0.24180156
0000c0 cb 99 66 3d 00 4a 62 39 f9 32 1f bc 81 ae ef be
       0.056299012 0.00021580607 -0.009716743 -0.46812823
0000d0 3a 2c 7b be 22 b8 f7 bd 8a 6a 97 be 5e ec 83 3d
       -0.2452859 -0.120956674 -0.2957347 0.06441568
0000e0 96 d0 4a be 58 ea 88 3d b7 87 24 3c 25 ff 34 bd
       -0.19806132 0.066853225 0.010042123 -0.044188637
0000f0 71 27 4f 3e 6c 26 84 3d 08 0b 5b bd 1c 6d b5 3d
       0.2022989 0.06452641 -0.053477317 0.088587016
000100 d5 47 f4 3d eb 71 3a be 30 0e 8d ba af 1d c3 be
       0.119277634 -0.18207519 -0.0010761674 -0.38108584
000110 f2 0b 2b 3d 96 e3 72 3e cb 4b 33 be 7d a4 4f be
       0.04175944 0.2371963 -0.17509381 -0.20277591
000120 c4 87 95 be 08 0f 0b 3e 6c d5 07 bd 14 95 e3 bb
       -0.29205143 0.13579953 -0.03316252 -0.0069452617
000130 ed df f0 be fc 1b 34 be 49 b0 87 3d 70 1c f1 3d
       -0.47045842 -0.175888 0.066254206 0.11773002
000140 5e fd 6e 3e 9d 53 d5 bd 38 6d 64 3e 63 2d a8 bd
       0.2333884 -0.104163386 0.22307289 -0.08211782
000150 17 fe 97 bd 31 47 64 3d b7 b8 83 bd 1c 87 03 bd
       -0.07421511 0.055731956 -0.06431716 -0.032111272
000160 09 98 49 be 55 4c 45 be f5 33 54 3e d2 f8 a8 bd
       -0.19686903 -0.192674 0.20722945 -0.08250584
000170 a8 6d 20 bd 6c 6b ae 3d 99 93 81 be fa 30 f4 bc
       -0.039167076 0.08516583 -0.2530792 -0.02980851
000180 1d 2f 1f be 1d ce be bd 1d 67 4b 3a be 7a c4 bd
       -0.15545316 -0.09316657 0.00077592005 -0.09593724
000190 84 45 62 be 5a bd 41 be e3 41 f5 bd a4 51 ae bd
       -0.2209683 -0.18919888 -0.119754575 -0.085116655
0001a0 09 46 3d bd 07 d6 e9 be 7a bf 85 3d 9e c5 45 bd
       -0.04620937 -0.45671102 0.06530662 -0.048284166
0001b0 a7 b8 c0 be c6 75 0d be a5 7a 81 be 59 7b ba 3d
       -0.3764088 -0.13814458 -0.25288883 0.09105558
0001c0 e6 c5 76 3b 8f 98 71 3d 21 be 24 3d cc 9c 83 3d
       0.0037654578 0.05898338 0.040220384 0.06426391
0001d0 52 a8 2e be 07 12 8b 3d c3 4d 30 3c 35 0a 47 3e
       -0.17056397 0.06790548 0.010760727 0.19437487
0001e0 8d d3 94 bd 1e 16 da bd 34 4c 9a ba 29 60 85 3d
       -0.072669126 -0.1064875 -0.0011771978 0.06512482
0001f0 b0 8a 0f 3e c4 2b 87 be ae 3e 9d bd 13 1a fc 3d
       0.14017749 -0.26400578 -0.07677971 0.12309661
000200 eb c7 bd be 1b a3 5a 3d 9d d6 09 bf 4e 6a 4e be
       -0.37066588 0.053378206 -0.538431 -0.2015774
000210 f7 40 97 bd da cd 36 be 77 fc 99 be 9e dc 96 3e
       -0.07385438 -0.17851964 -0.30075428 0.29465193
000220 e5 7e 38 3d 5f 14 a4 bc 03 9f be be b1 08 92 be
       0.04504289 -0.020029245 -0.3723069 -0.28522256
000230 70 6a 8a 3d 01 d1 e7 bd b0 a5 0c 3d 94 4e 43 bd
       0.067585826 -0.11319161 0.0343377 -0.04768236
000240 a3 b7 0a 3d 48 0c 9a be 41 48 87 3d d4 49 d4 3d
       0.033866536 -0.30087495 0.06605578 0.10365644
000250 a3 c6 f5 be b6 02 f0 be 44 e4 22 be cf 9b 0b 3e
       -0.4800311 -0.46877068 -0.15907389 0.13633655
000260 d6 43 a4 be 93 42 4b be c6 57 bb be de 40 98 be
       -0.32083005 -0.19849615 -0.36590403 -0.2973699
000270 89 ef dc 3d 87 d1 9f 3d 71 15 79 3e 8e 1a 44 be
       0.10787875 0.07803636 0.24324585 -0.19150755
000280 ff 7a 3f bf 42 18 28 ba 95 c7 09 be 66 68 05 bf
       -0.7479705 -0.0006412306 -0.13455041 -0.52112424
000290 6b 63 a9 be 1a 71 d7 bd 98 98 bb be 37 d9 87 be
       -0.33083662 -0.10519619 -0.36639857 -0.2653291
0002a0 ac 54 ad be a8 42 45 3e 5d c8 ba be af 58 2a bd
       -0.33853662 0.19263709 -0.3648099 -0.04158848
0002b0 ec df f4 bc 97 5d 38 be 59 74 82 bc c7 9c 97 3d
       -0.02989193 -0.18004452 -0.01592462 0.0740295
0002c0 5f 63 66 be fc 1d 9a bd e8 59 52 3e 91 44 cf bd
       -0.22498845 -0.0752525 0.20542109 -0.101205
0002d0 df 10 17 be eb 62 db be 82 7d c0 bd d5 43 87 3d
       -0.1475253 -0.42848906 -0.09398939 0.06604735
0002e0 10 a3 16 be 22 d1 c2 be 55 81 a7 bd 50 3b 65 3e
       -0.14710641 -0.3805018 -0.08178965 0.22385907
0002f0 cb a6 15 bc 09 b9 dd be 51 4f 40 be 87 e4 eb 3d
       -0.009134005 -0.43305233 -0.18780257 0.115181975
000300 95 d1 e7 3d 46 87 87 3d 12 af 40 3c 5d bd a3 3d
       0.113192715 0.06617598 0.01176049 0.079951026
000310 33 d2 05 be 14 5c 57 3d c9 da 19 3d 96 95 16 3e
       -0.13068466 0.052578047 0.037562165 0.147055
000320 0f eb fe 3d 4f b1 a1 3d 4a be a3 bd d0 45 87 3d
       0.124471776 0.07895147 -0.07995279 0.066051126
000330 d8 92 82 3e 67 99 1b be 74 7e 3a 3e 70 ac 2c 3e
       0.25502658 -0.15195237 0.182123 0.16862655
000340 63 bc 3b be 18 32 46 3d 78 ab 98 bd cd 35 e4 3c
       -0.18333583 0.048387617 -0.0745458 0.027857685
000350 21 58 07 bd c6 0a 92 be d4 8b dd bd 5b 1a a5 bc
       -0.03304303 -0.28523844 -0.10817686 -0.020154169
000360 1e f9 62 3d 00 a7 01 3e e4 a3 80 3d fe 87 56 be
       0.055413358 0.12661362 0.0628126 -0.20950314
000370 a9 c2 d1 3c 3c 36 00 be be aa 38 be b4 f4 42 3c
       0.025605517 -0.12520689 -0.18033883 0.011899162
000380 97 0b 16 be 7a a3 0c bf 5c 2b d2 3d d5 1f 37 3d
       -0.14652859 -0.54936945 0.102621764 0.04470809
000390 43 26 3b be aa a3 2a be 5d cd b2 bd 09 72 82 3d
       -0.18276314 -0.16663995 -0.08730576 0.06369407
0003a0 51 2f 73 bd d5 9e b2 3e 40 9a 84 be 03 47 4d 3d
       -0.059371296 0.34886804 -0.25898933 0.05011655
0003b0 5a 11 35 bd d1 a7 86 3e 1c dc 27 3d df 30 78 3d
       -0.044206 0.2629991 0.040981397 0.060593482
0003c0 5e 4c 17 3d e4 9f 27 bd d2 ee c1 bd b4 90 bb bd
       0.036938064 -0.040923968 -0.094693795 -0.09158459
0003d0 bd 8f 8c 3e a2 63 8b 3d 86 3a 51 be b2 af c8 be
       0.27453414 0.06806113 -0.20432481 -0.39196545
0003e0 09 7b 92 be d0 66 1c bf 47 11 ff be 3c 68 f8 3d
       -0.28609493 -0.6109438 -0.4981787 0.12129256
0003f0 e6 39 83 be f2 d5 7d be 4e 38 67 bd 08 86 24 be
       -0.2563011 -0.24788645 -0.05645018 -0.16066754

l3.bias f4 [3]
000000 c6 39 fe 3c ed b0 1c 3e cb ff 21 be
       0.031033408 0.15301867 -0.15820234
